Layer name, IFMAP Height, IFMAP Width, Filter Height, Filter Width, Channels, Num Filter, Strides,
DSConv1,  224, 224,    5, 5,    3,      75,     1,
WA1,	  244, 244,    1, 1,	75,	15,	 1,
WA2,	  122, 122,    1, 1,	15,	59,	 1,
DSConv3,  122, 122,    3, 3,	59,	1295,	 1,
WA3,	  122, 122,    1, 1,	1295,	259,	 1,
WA4,	  122, 122,    1, 1,	259,	57,	 1,
WA5,	  122, 122,    1, 1,	57,	88,	 1,
WA6,	  122, 122,    1, 1,	88,	209,	 1,
DSConv7,  122, 122,    3, 3,	64,	320,	 1,
WA7,	  122, 122,    1, 1,	320,	64,	 1,
WA8,	  122, 122,    1, 1,	64,	256,	 1,
WA9,	  122, 122,    1, 1,	256,	64,	 1,
DSConv10, 122, 122,    3, 3,	64,	320,	 1,
WA10,	  122, 122,    1, 1,	320,	64,	 1,
WA11,	  122, 122,    1, 1,	64,	256,	 1,
WA12,	  122, 122,    1, 1,	256,	128,	 1,
DSConv13, 122, 122,    3, 3,	128,	640,	 1,
WA13,	  122, 122,    1, 1,	640,	128,	 1,
WA14,	  122, 122,    1, 1,	128,	512,	 1,
WA15,	  122, 122,    1, 1,	256,	512,	 2,
WA16,	  61,  61,     1, 1,	512,	128,	 1,
DSConv17, 61,  61,     3, 3,	128,	640,	 1,
WA17,	  61,  61,     1, 1,	640,	128,	 1,
WA18,	  61,  61,     1, 1,	128,	512,	 1,
WA19,	  61,  61,     1, 1,	512,	128,	 1,
DSConv20, 61,  61,     3, 3,	128,	640,	 1,
WA20,	  61,  61,     1, 1,	640,	128,	 1,
WA21,	  61,  61,     1, 1,	128,	512,	 1,
WA22,	  61,  61,     1, 1,	512,	128,	 1,
DSConv23, 61,  61,     3, 3,	128,	640,	 1,
WA23,	  61,  61,     1, 1,	640,	128,	 1,
WA24,	  61,  61,     1, 1,	128,	512,	 1,
WA25,	  61,  61,     1, 1,	512,	256,	 1,
DSConv26, 61,  61,     3, 3,	256,	1280,	 1,
WA26,	  61,  61,     1, 1,	1280,	256,	 1,
WA27,	  61,  61,     1, 1,	256,	1024,	 1,
WA28,	  61,  61,     1, 1,	512,	1024,	 2,
WA29,	  30,  30,     1, 1,	1024,	256,	 1,
DSConv30, 30,  30,     3, 3,	256,	1280,	 1,
WA30,	  30,  30,     1, 1,	1280,	256,	 1,
WA31,	  30,  30,     1, 1,	256,	1024,	 1,
WA32,	  30,  30,     1, 1,	1024,	256,	 1,
DSConv33, 30,  30,     3, 3,	256,	1280,	 1,
WA33,	  30,  30,     1, 1,	1280,	256,	 1,
WA34,	  30,  30,     1, 1,	256,	1024,	 1,
WA35,	  30,  30,     1, 1,	1024,	256,	 1,
DSConv36, 30,  30,     3, 3,	256,	1280,	 1,
WA36,	  30,  30,     1, 1,	1280,	256,	 1,
WA37,	  30,  30,     1, 1,	256,	1024,	 1,
WA38,	  30,  30,     1, 1,	1024,	256,	 1,
DSConv39, 30,  30,     3, 3,	256,	1280,	 1,
WA39,	  30,  30,     1, 1,	1280,	256,	 1,
WA40,	  30,  30,     1, 1,	256,	1024,	 1,
WA41,	  30,  30,     1, 1,	1024,	512,	 1,
DSConv42, 30,  30,     3, 3,	512,	2560,	 1,
WA42,	  30,  30,     1, 1,	2560,	512,	 1,
WA43,	  30,  30,     1, 1,	512,	2048,	 1,
WA44,	  30,  30,     1, 1,	1024,	2048,	 2,
WA45,	  15,  15,     1, 1,	2048,	512,	 1,
DSConv46, 15,  15,     3, 3,	512,	2560,	 1,
WA46,	  15,  15,     1, 1,	2560,	512,	 1,
WA47,	  15,  15,     1, 1,	512,	2048,	 1,
WA48,	  15,  15,     1, 1,	2048,	512,	 1,
DSConv49, 15,  15,     3, 3,	512,	2560,	 1,
WA49,	  15,  15,     1, 1,	2560,	512,	 1,
WA50,	  15,  15,     1, 1,	512,	2048,	 1,
FC1,	1,   1,	     1,	1,	2048,	1000,	1,