Layer name, IFMAP Height, IFMAP Width, Filter Height, Filter Width, Channels, Num Filter, Strides,
Conv1,  34, 34,    3, 3,        3,      64,     1,
Conv2,  34, 34,    3, 3,        64,     64,     1,
Conv3,  18, 18,    3, 3,        64,     128,     1,
Conv4,  18, 18,     3, 3,       128,    128,    1,
Conv5,  10, 10,     3, 3,       128,    256,    1,
Conv6,  10, 10,     3, 3,       256,    256,    1,
Conv7,	10, 10,     3,	3,	256,	256,	1,
Conv8,	10, 10,     3,	3,	256,	256,	1,
Conv9,	6,  6,     3,	3,	256,	512,	1,
Conv10,	6,  6,     3,	3,	512,	512,	1,
Conv11,	6,  6,	     3,	3,	512,	512,	1,
Conv12, 6,  6,	     3,	3,	512,	512,	1,
Conv13, 4,   4,	     3,	3,	512,	512,	1,
Conv14,	4,   4,	     3,	3,	512,	512,	1,
Conv15,	4,   4,	     3,	3,	512,	512,	1,
Conv16,	4,   4,	     3,	3,	512,	512,	1,
FC1,	1,   1,	     1,	1,	512,	512,	1,
FC2,	1,   1,	     1,	1,	512,	512,	1,
FC3,	1,   1,	     1,	1,	512,	100,	1,