Layer name, IFMAP Height, IFMAP Width, Filter Height, Filter Width, Channels, Num Filter, Strides,
DSConv1,  224, 224,    3, 3,    3,    320,     1,
WA1,	  222, 222,    1, 1,    320,  64,     1,
DSConv2,  224, 224,    3, 3,    64,   320,     1,
WA2,	  222, 222,    1, 1,    320,  64,     1,
DSConv3,  113, 113,    3, 3,    64,   640,     1,
WA3,	  111, 111,    1, 1,	640,  128,	 1,
DSConv4,  113, 113,    3, 3,    128,  640,    1,
WA4,	  111, 111,    1, 1,	640,  128,	 1,
DSConv5,  57,  57,     3, 3,    128,  1280,    1,
WA5,	  55,  55,     1, 1,	1280, 256,	 1,
DSConv6,  57,  57,     3, 3,    256,  1280,    1,
WA6,	  55,  55,     1, 1,	1280, 256,	 1,
DSConv7,  57,  57,     3, 3,	256,  1280,	1,
WA7,	  55,  55,     1, 1,	1280, 256,	1,
DSConv8,  27,  27,     3, 3,	256,  2560,	1,
WA8,	  25,  25,     1, 1,	2560, 512,	1,
DSConv9,  27,  27,     3, 3,	512,  2560,	1,
WA9,	  25,  25,     1, 1,	2560, 512,	1,
DSConv10, 27,  27,     3, 3,	512,  2560,	1,
WA10,	  25,  25,     1, 1,	2560, 512,	1,
DSConv11, 12,  12,     3, 3,	512,  2560,	1,
WA11,	  10,  10,     1, 1,	2560, 512,	1,
DSConv12, 12,  12,     3, 3,	512,  2560,	1,
WA12,	  10,  10,     1, 1,	2560, 512,	1,
DSConv13, 12,  12,     3, 3,	512,  2560,	1,
WA13,	  10,  10,     1, 1,	2560, 512,	1,
FC1,	1,   1,	     1,	1,	12800,	4096,	1,
FC2,	1,   1,	     1,	1,	4096,	4096,	1,
FC3,	1,   1,	     1,	1,	4096,	1000,	1,